…
        "model_iula.compile(loss='mse', optimizer='adam', metrics=['accuracy'])\n",
        "model_iula.summary()\n",
        "# fit(x_cars, y_cars, batch_size=64, epochs=20, verbose=1, validation_split=0.02)"
      ],
      "execution_count": null,
      "outputs": [
        {
          "output_type": "stream",
          "text": [
            "Model: \"sequential_8\"\n",
            "_________________________________________________________________\n",
            "Layer (type)                 Output Shape              Param #   \n",
            "=================================================================\n",
            "conv2d_6 (Conv2D)            (None, 26, 26, 32)        320       \n",
            "_________________________________________________________________\n",
            "activation_6 (Activation)    (None, 26, 26, 32)        0         \n",
            "_________________________________________________________________\n",
            "conv2d_7 (Conv2D)            (None, 24, 24, 32)        9248      \n",
            "_________________________________________________________________\n",
            "activation_7 (Activation)    (None, 24, 24, 32)        0         \n",
            "_________________________________________________________________\n",
            "max_pooling2d_2 (MaxPooling2 (None, 12, 12, 32)        0         \n",
            "_________________________________________________________________\n",
            "conv2d_8 (Conv2D)            (None, 10, 10, 64)        18496     \n",
            "_________________________________________________________________\n",
            "activation_8 (Activation)    (None, 10, 10, 64)        0         \n",
            "_________________________________________________________________\n",
            "conv2d_9 (Conv2D)            (None, 8, 8, 64)          36928     \n",
            "_________________________________________________________________\n",
            "activation_9 (Activation)    (None, 8, 8, 64)          0         \n",
            "_________________________________________________________________\n",
            "max_pooling2d_3 (MaxPooling2 (None, 4, 4, 64)          0         \n",
            "_________________________________________________________________\n",
            "flatten (Flatten)            (None, 1024)              0         \n",
            "_________________________________________________________________\n",
            "dense_16 (Dense)             (None, 512)               524800    \n",
            "_________________________________________________________________\n",
            "activation_10 (Activation)   (None, 512)               0         \n",
            "_________________________________________________________________\n",
            "dropout_12 (Dropout)         (None, 512)               0         \n",
            "_________________________________________________________________\n",
            "dense_17 (Dense)             (None, 10)                5130      \n",
            "_________________________________________________________________\n",
            "activation_11 (Activation)   (None, 10)                0         \n",
            "=================================================================\n",
            "Total params: 594,922\n",
            "Trainable params: 594,922\n",
            "Non-trainable params: 0\n",
            "_________________________________________________________________\n"
          ],
          "name": "stdout"
        }
      ]
    }
  ]
}
